deploy/nn/model.pt (torch, 348457 bytes, 18 tensors)

actor_logstd f4 [1, 12]
0	0xc010998b	-2.2593715
1	0xbff4f009	-1.9135753
2	0xc0061ec0	-2.0956268
3	0xc019c7ce	-2.40282
4	0xbfef1ca5	-1.8680617
5	0xc005bd0c	-2.0896635
6	0xc01b093b	-2.4224384
7	0xc00ead8d	-2.2293427
8	0xc0040710	-2.062931
9	0xc0166a24	-2.3502283
10	0xc0085da9	-2.1307166
11	0xc00eda9b	-2.2320926

weight f4 [128, 45]
0	0xbe2ec2a0	-0.17066431
1	0x3ecdd97c	0.4020499
2	0x3c5ce53b	0.013482387
3	0x3e31d717	0.17367207
4	0x3e2c1ee1	0.16808654
5	0x3b854e4a	0.0040681707
6	0xbe9d4627	-0.30717584
7	0xbd8e3c49	-0.06945092
8	0xbc334d0d	-0.010943663
9	0xbec11599	-0.3771179
10	0x3e8e2b71	0.27767518
11	0x3d74267e	0.05960702
12	0x3e707f8d	0.23486157
13	0xbdb276d4	-0.08714071
14	0xbcfe0734	-0.031009294
15	0xbca178f4	-0.019710995
16	0xbc626710	-0.013818517
17	0x3ebbbebe	0.36668962
18	0xbf0f2a72	-0.5592414
19	0x3efb0487	0.49026892
20	0x3e05b545	0.1305743
21	0xbdc21977	-0.09477513
22	0x3c63a3fb	0.013894076
23	0x3e0b4dc3	0.13603882
24	0x3d480e9d	0.04884206
25	0xbd0d4252	-0.034487076
26	0xbc7bbce0	-0.0153648555
27	0x3d8efa06	0.06981282
28	0x3d14cd43	0.036328565
29	0xbde55633	-0.11198082
30	0xbdf38ce3	-0.118921064
31	0x3e1363f3	0.14393596
32	0x3d7d2a0e	0.061807685
33	0xbdb419cf	-0.08793985
34	0x3dbb9a7f	0.09160327
35	0x3ea25f3f	0.31713292
36	0xbc0ec403	-0.008713725
37	0xbd9e2cae	-0.07723366
38	0xbd8ee06b	-0.06976398
39	0xbf0aa674	-0.5416024
40	0x3e9d27e3	0.30694494
41	0xbe197892	-0.149874
42	0xbead39d8	-0.33833194
43	0xbc2036d6	-0.009778699
44	0x3dade278	0.08490461
45	0x3d95eb19	0.07320232
46	0x3c53130c	0.012882959
47	0xbd4e7f82	-0.05041457
48	0x3c2196c5	0.009862606
49	0xbd52ddc0	-0.05148101
50	0xb97740a1	-0.00023579832
51	0xbe2c30e5	-0.16815527
52	0x3e5f0115	0.21777757
53	0x3e8407e5	0.25787273
54	0x3daf39a3	0.08555915
55	0x3e1ca746	0.15298185
56	0xbd96be3f	-0.07360505
57	0x3e7b9c32	0.24571303
58	0xbd2cef55	-0.042220432
59	0xbda4a6e7	-0.080396466
60	0xbdf01663	-0.1172302
61	0x3c38cdff	0.011279582
62	0x3d2c2f03	0.04203702
63	0xbd251754	-0.04030545
64	0xbdb53efd	-0.08849905
65	0xbdccb610	-0.09995663
66	0x3c28258f	0.010262861
67	0x3d17f6e2	0.03710068
68	0x3d4bb2a2	0.049730904
69	0x3d2a8554	0.041631058
70	0x3c844c4b	0.01614966
71	0x3cfe081e	0.03100973
72	0x3c05954a	0.008153269
73	0x3ccfd8e4	0.025371976
74	0xbbba74ba	-0.0056901844
75	0x3bc33535	0.0059572705
76	0xbc247fb6	-0.010040214
77	0x3d508b9b	0.05091439
78	0xbd534df2	-0.051588006
79	0xbafeab5b	-0.001942973
80	0xbdf861f3	-0.12128057
81	0x3c5d1e4f	0.013495996
82	0x3c60c7c9	0.0137195075
83	0xbc1eff63	-0.009704444
84	0xbd3df15d	-0.04637276
85	0x3aa7475d	0.0012762357
86	0x3cb14c6d	0.021642888
87	0xbad1a4e9	-0.0015994582
88	0x3c91473f	0.017734168
89	0xbdb259bb	-0.08708521
90	0xbb63f3dd	-0.0034782805
91	0x3de48d88	0.111598074
92	0x3dff330d	0.12460909
93	0x3d44785b	0.047966342
94	0xbc3bcaa8	-0.011461891
95	0x3baf1a47	0.0053437087
96	0x3cea5a28	0.028607443
97	0xbe7eb4db	-0.24873678
98	0xbf0c0ac6	-0.5470394
99	0xbe32a78b	-0.17446725
100	0xbdc401b7	-0.095706396
101	0xbdf41342	-0.11917736
102	0xbd662818	-0.05619058
103	0xbda2a74f	-0.07942068
104	0x3ad5f07f	0.0016322284
105	0xbbae982f	-0.0053282003
106	0xbde5bbff	-0.11217498
107	0x3ca43fde	0.020049985
108	0x3dc1c0cf	0.094606034
109	0x3dba1070	0.090851665
110	0x3d84f35e	0.06491731
111	0xbbcbe42b	-0.006222268
112	0xbd6a6035	-0.057220656
113	0x3d582c09	0.05277637
114	0x3c86e3c2	0.016466025
115	0x3d3b370c	0.045706794
116	0x3d6f97aa	0.058494247
117	0x3ca4443e	0.020052072
118	0xbcadb8e3	-0.021206325
119	0xbd3fa458	-0.04678759
120	0xbccf3832	-0.02529535
121	0x3de3cc7e	0.11122988
122	0x3d3167cc	0.04331188
123	0xbaac349c	-0.0013138237
124	0x3c926b85	0.017873535
125	0xbccfb36c	-0.02535411
126	0x3db79384	0.08963683
127	0x3c0574ec	0.008145552
128	0xbd88adbc	-0.06673762
129	0x3c656a3a	0.014002377
130	0x3d45764d	0.048208524
131	0xbe73963e	-0.23787782
132	0x3cec73a6	0.02886374
133	0xbc66260f	-0.01404716
134	0xbe418f00	-0.18902206
135	0x3e2a18c3	0.16611008
136	0x3d6006a1	0.05469382
137	0x3d9d6fc6	0.07687335
138	0x3cba0c09	0.022710817
139	0xbdcaae81	-0.09896565
140	0x3b38a244	0.002817289
141	0xbe39902d	-0.18121405
142	0x3e067d84	0.13133818
143	0xbe4b4150	-0.19849133
144	0x3d5db038	0.054123133
145	0x3d05a92a	0.03263203
146	0x3e1a8432	0.15089491
147	0xbd5ac2d0	-0.053408444
148	0x3e834ac3	0.25642976
149	0x3e5109fe	0.20413968
150	0x3e5a0d07	0.21294032
151	0xbde45911	-0.111498006
152	0xbe851c4c	-0.2599815
153	0x3e42c25c	0.19019455
154	0x3e2ad535	0.16682895
155	0x3df39740	0.11894083
156	0x3d76fd87	0.060300376
157	0x3b45573a	0.0030111806
158	0xbcb42e99	-0.021994876
159	0x3db068d2	0.08613743
160	0x3ad4e816	0.0016243483
161	0x3c5adef5	0.013358821
162	0xbcb866e8	-0.022510007
163	0x3d53dca0	0.051724076
164	0xbd2402b8	-0.040041655
165	0xbc7f0986	-0.015566235
166	0xbd94eb53	-0.07271447
167	0xbd03938c	-0.032123134
168	0x3d56c80f	0.052436884
169	0xbdd15b75	-0.10222522
170	0x3dde6570	0.108591914
171	0x3d39fe9c	0.04540883
172	0x3dd0e990	0.102007985
173	0xbdbdfe7f	-0.09277057
174	0x3c13a88d	0.009012354
175	0x3c9790f4	0.018501736
176	0x3db1b63d	0.08677337
177	0x3d71731e	0.058947675
178	0x3c0f21a4	0.008736048
179	0xbd9b596a	-0.07585414
180	0x3d8c1e68	0.06841737
181	0xbc38caa7	-0.011278785
182	0x3ad2e4a0	0.0016089864
183	0x3cb31eda	0.021865297
184	0xbcbcfbb8	-0.023069248
185	0xbb9feb8c	-0.0048803743
186	0x3df151d5	0.11783186
187	0xbc2b0e68	-0.010440446
188	0xbee2b15a	-0.44275934
189	0x3eedb52f	0.46427295
190	0x3d601002	0.054702766
191	0xbe1e83f0	-0.15480018
192	0xbde1154c	-0.1099039
193	0xbe70acf3	-0.23503475
194	0x3e0ec9ea	0.13944212
195	0x3e0896b7	0.13338743
196	0xbbf868e3	-0.007580863
197	0x3e02a5f5	0.1275862
198	0xbe7214d8	-0.23640764
199	0x3c90a3f9	0.017656313
200	0x3cfdd83f	0.030986903
201	0x3ca5ce18	0.020239875
202	0xbb1e9301	-0.0024196508
203	0xbd7a1b35	-0.061061103
204	0xbc1e4ccf	-0.009661867
205	0xbbf4e826	-0.0074739633
206	0x3c21e783	0.009881857
207	0x3c72d06a	0.014820198
208	0xbc87b88a	-0.016567487
209	0xbbdf8a2b	-0.006821891
210	0x3bbb028c	0.0057070907
211	0x3cafc1bd	0.021454686
212	0x3cbd2adc	0.023091726
213	0x3dcb4900	0.09926033
214	0x3b873a2b	0.004126807
215	0x3db096ff	0.0862255
216	0xbc88213b	-0.016617408
217	0x3d52fd96	0.05151137
218	0xbdc7acb8	-0.0974974
219	0x3e287eb2	0.1645458
220	0xbc895dc2	-0.01676834
221	0xbd299f72	-0.041411825
222	0xbae9d2b1	-0.001783928
223	0xbc58a95e	-0.013223974
224	0xbe0497de	-0.12948558
225	0x3c32b22a	0.010906735
226	0xbcf9cdf7	-0.03049372
227	0x3d254edc	0.04035841
228	0xbd13ec66	-0.03611412
229	0xbb4000ed	-0.0029297427
230	0xbabd0853	-0.0014422036
231	0xbe9ffbf2	-0.31246907
232	0xbef9a06c	-0.48755205
233	0xbf3d385c	-0.7391412
234	0x3d1c61b2	0.038179107
235	0xbd8f3e90	-0.06994355
236	0x3cfee8ca	0.031116862
237	0xbc753129	-0.014965334
238	0xbd336cf6	-0.043805085
239	0xbc69b14b	-0.014263461
240	0x3d77b4f9	0.060475323
241	0x3cd569b9	0.026051389
242	0xbc653504	-0.013989691
243	0x3d17b924	0.0370418
244	0xbca036cd	-0.019557381
245	0x3c35f833	0.011106539
246	0x3ca1c7ca	0.019748587
247	0x3912ffd4	0.00014018948
248	0xbcd81597	-0.026377482
249	0xbad71e41	-0.0016412215
250	0x3c874abf	0.016515134
251	0xbcd056c2	-0.025431994
252	0xbb21e2c8	-0.0024701823
253	0x3c5114d6	0.012761315
254	0x3ccbf898	0.024898812
255	0x3b8b3083	0.0042477264

bias f4 [128]
0	0xbf52c4a7	-0.8233132
1	0xbee2b113	-0.44275722
2	0xbf013fe6	-0.50488126
3	0xbede35c4	-0.43400395
4	0xbf0d342a	-0.5515772
5	0xbf36bcf4	-0.7138207
6	0xbf4a7d92	-0.79097855
7	0x3ed4f4ba	0.41592962
8	0x3f569d8d	0.83834153
9	0xbf81d379	-1.0142661
10	0x3eced2d2	0.40395218
11	0xbe94f23b	-0.29091057
12	0xbec75df5	-0.3893887
13	0xbcadae20	-0.021201193
14	0x3db534e0	0.08847976
15	0xbd7a41bc	-0.061097845
16	0xbea7c3d6	-0.32766598
17	0x3d4dbab8	0.050226897
18	0xbf261d13	-0.64888114
19	0xbed0c397	-0.40774223
20	0xbf190a41	-0.5978127
21	0xbefe302a	-0.4964612
22	0xbf0be587	-0.54647106
23	0x3e8a0d85	0.2696344
24	0xbf1b5736	-0.6067995
25	0xbecc779b	-0.39935002
26	0xbf19194f	-0.5980424
27	0x3ecfb0b9	0.40564516
28	0x3f414582	0.75496686
29	0xbe8b734e	-0.27236408
30	0xbed404c4	-0.41409886
31	0x3f1a5b24	0.6029532
32	0xbef69e86	-0.4816782
33	0xbeffb2a9	-0.49940994
34	0xbea51835	-0.3224503
35	0x3dcebba1	0.10094381
36	0x3f71efd6	0.94506586
37	0xbf219a4b	-0.6312606
38	0xbed5c0a1	-0.41748527
39	0xbf394e1b	-0.72384804
40	0xbd9649fb	-0.073383294
41	0xbf204c22	-0.6261617
42	0x3e16cbaf	0.14726137
43	0xbe9fb4d7	-0.31192657
44	0xbf04f8b2	-0.5194198
45	0xbe50b53c	-0.20381635
46	0xbe7343e6	-0.2375637
47	0xbf308734	-0.68956304
48	0x3e2e9a0a	0.17050949
49	0x3ec2995a	0.38007623
50	0x3f1c53c5	0.6106532
51	0xbf1be043	-0.6088907
52	0xbf211a21	-0.62930495
53	0xbed3726c	-0.41298234
54	0xbf123fab	-0.571284
55	0x3f256d7c	0.64620185
56	0xbefaf612	-0.49015862
57	0xbd068868	-0.03284493
58	0xbe9c5099	-0.3053024
59	0xbea98bc6	-0.3311445
60	0x3f59aaa8	0.85026026
61	0x3f40bc98	0.7528777
62	0x3f03651b	0.5132615
63	0x3e4401eb	0.19141357
64	0xbefeaf6e	-0.49743217
65	0x3eddab93	0.43294963
66	0xbe5077f1	-0.20358254
67	0x3f1e5772	0.6185218
68	0xbedc3183	-0.43006524
69	0x3f42c5b0	0.760829
70	0x3ef60490	0.48050356
71	0xbf03b12c	-0.5144222
72	0xbe834493	-0.25638255
73	0xbec58456	-0.38577527
74	0xbf3d1f07	-0.7387547
75	0xbe789899	-0.24276961
76	0x3f35116a	0.70729697
77	0xbdfaf23c	-0.12253234
78	0xbf28ab0f	-0.65886015
79	0xbd959556	-0.07303874
80	0xbebc5906	-0.3678667
81	0xbdc5d25d	-0.09659264
82	0xbf3111b8	-0.6916766
83	0xbf4576b7	-0.7713427
84	0xbf34c6c0	-0.7061577
85	0x3effec78	0.499851
86	0xbefe2258	-0.49635577
87	0xbf0bc3f2	-0.54595864
88	0xbf07b5ca	-0.53011763
89	0xbefbc614	-0.4917456
90	0xbc92e139	-0.01792966
91	0x3f2ebe3d	0.6825903
92	0xbf250407	-0.6445927
93	0xbd8301a1	-0.06396795
94	0x3ec98f68	0.39367223
95	0xbf03cc6c	-0.514838
96	0xbe0ea8cf	-0.13931583
97	0xbe5823a4	-0.21107346
98	0x3f2df541	0.6795235
99	0x3a9c4236	0.0011921588
100	0x3f40cb92	0.75310624
101	0x3f0792f6	0.5295862
102	0xbe9cce13	-0.30625972
103	0xbe628484	-0.22120863
104	0x3f482d69	0.7819429
105	0xbf135db1	-0.57564837
106	0xbedd9649	-0.4327872
107	0xbd75150f	-0.059834536
108	0x3e751242	0.23932746
109	0x3f0368cc	0.5133178
110	0x3e64aca9	0.2233149
111	0xbf202402	-0.62554944
112	0xbf0f84b8	-0.5606189
113	0xbef56bfc	-0.47933948
114	0xbf0c9750	-0.54918385
115	0xbeeb0ffd	-0.45910636
116	0xbe0a56d6	-0.13509688
117	0xbef130f0	-0.4710765
118	0xbf199bf5	-0.60003597
119	0xbec412e3	-0.3829566
120	0xbeed4de2	-0.46348482
121	0xbdc4f46f	-0.096169345
122	0xbf47d32d	-0.78056604
123	0xbe767224	-0.24066979
124	0xbf0294bd	-0.51008207
125	0xbedd284e	-0.43194813
126	0x3f5f3dcf	0.8720369
127	0xbee3e8df	-0.44513604

weight f4 [128, 128]
0	0xbd840c85	-0.064477004
1	0xbd10b464	-0.035328284
2	0x3e072b1d	0.1320004
3	0x3eeb2db2	0.459333
4	0x3e6617bf	0.22469996
5	0xbda2167b	-0.07914444
6	0xbd8b3310	-0.06796849
7	0xbeb061f7	-0.3444974
8	0xbe52b2b0	-0.20575976
9	0xbf44a9ce	-0.768216
10	0xbea40ff4	-0.3204342
11	0x3d27f834	0.04100819
12	0x3d9b5435	0.075844206
13	0xbd6ea1a2	-0.058259614
14	0x3e21e07b	0.15808289
15	0x3e67297a	0.22574416
16	0xbcdafe5c	-0.026732616
17	0xbe62ccc7	-0.22148429
18	0xbebfb877	-0.37445423
19	0x3e0ba950	0.13638806
20	0x3dba9608	0.091106474
21	0x3e87aa0d	0.26496926
22	0x3e311871	0.1729448
23	0x3e1980ed	0.14990588
24	0xbcab0754	-0.020877518
25	0x3e7ee420	0.2489171
26	0xbe42c47b	-0.19020264
27	0xbd407240	-0.046983957
28	0xbd9f5d20	-0.07781434
29	0x3d4d33a6	0.050098084
30	0xbd1a9675	-0.037741143
31	0x3d22a1b1	0.039704982
32	0x3e5c0825	0.21487482
33	0xbe64f319	-0.2235836
34	0xbcbacdc1	-0.02280319
35	0xbe0da391	-0.13831927
36	0x3e22acdc	0.15886253
37	0xbea120a7	-0.31470224
38	0x3ea3cb20	0.3199091
39	0x3e636680	0.2220707
40	0x3e450bc6	0.19242772
41	0x3c104b60	0.008807033
42	0xbbbe4248	-0.005806241
43	0x3db1cae8	0.086812794
44	0x3dca9a33	0.098926924
45	0xbd820518	-0.06348628
46	0xbe0e61ed	-0.13904543
47	0x3e76c4f4	0.24098569
48	0x3d29c4b4	0.041447356
49	0x3e17b3d4	0.14814693
50	0x3e73ba24	0.23801476
51	0xbe7ce946	-0.24698362
52	0x3e6667cb	0.22500531
53	0xbd473ccc	-0.048641965
54	0x3d2607ab	0.040534656
55	0xbd29da9e	-0.041468255
56	0xbd31c5ad	-0.04340141
57	0x3e5a9db5	0.21349223
58	0xbdf0827f	-0.1174364
59	0x3d093e2f	0.03350657
60	0x3b0106f6	0.0019687987
61	0xbe2e380a	-0.17013565
62	0xbe664808	-0.22488415
63	0x3d24b764	0.040213957
64	0x3e1dcddc	0.1541056
65	0xbe87af51	-0.26500943
66	0x3d95d233	0.07315483
67	0xbe7be3c3	-0.24598603
68	0x3e92b210	0.28651476
69	0xbeb69b0e	-0.35665172
70	0x3c1a795b	0.009428347
71	0xbd9a64f3	-0.07538786
72	0xbe11c788	-0.14236271
73	0x3c1f340d	0.009717
74	0x3e3f82d8	0.18702257
75	0x3c841ff1	0.016128512
76	0xbe1c1052	-0.152406
77	0xbd20a8f0	-0.03922361
78	0x3e51a848	0.2047435
79	0xbe5c042d	-0.21485968
80	0xbdba6165	-0.09100608
81	0xbe436784	-0.19082457
82	0xbe14d12a	-0.14532915
83	0xbd782ef1	-0.06059164
84	0x3cb86d0f	0.02251294
85	0xbe9cff13	-0.30663356
86	0x3efc0e41	0.49229625
87	0x3e30b580	0.17256737
88	0x3cc004a6	0.023439717
89	0xbe9b10dc	-0.302863
90	0x3bce550b	0.006296759
91	0xbcb0afdf	-0.021568237
92	0x3ee582dd	0.44826403
93	0xbce580a7	-0.028015448
94	0xbe855121	-0.2603846
95	0x3ed49bf3	0.4152523
96	0x3df674d9	0.12034006
97	0x3db32dfe	0.08749007
98	0xbe22bc5e	-0.15892169
99	0xbc81a974	-0.015827872
100	0xbd35613c	-0.044282183
101	0xbd987486	-0.074441
102	0x3eedaa18	0.46418834
103	0xbd95c60c	-0.07313165
104	0xbea08282	-0.3134957
105	0x3d020ffa	0.031753518
106	0xbe79fa6c	-0.24411935
107	0x3ec7d726	0.39031333
108	0xbea8147e	-0.32828134
109	0x3e65cdb1	0.22441746
110	0x3cafaf2e	0.021445837
111	0xbcfe06ac	-0.03100904
112	0x3e059ae6	0.1304737
113	0x3e8c8ff0	0.27453566
114	0x3e5e2b1b	0.21696131
115	0xbe4b011d	-0.19824643
116	0xbdd22b75	-0.10262195
117	0x3ccfaa46	0.025349747
118	0x3e91431a	0.28371507
119	0x3e131847	0.1436473
120	0x3d24323e	0.040086977
121	0x3c20dca5	0.009818231
122	0x3ee49594	0.4464537
123	0xbdd87f5f	-0.10571169
124	0xbe5cc170	-0.21558166
125	0x3dca4405	0.09876255
126	0x3d6229a7	0.055215504
127	0x3c81f10d	0.015862012
128	0x3ddd10ee	0.10794245
129	0x3e32f26e	0.17475292
130	0xbd789f8c	-0.06069903
131	0x3d9dc1a8	0.077029526
132	0xbe12934b	-0.14314
133	0xbee7051d	-0.4512109
134	0xbe74db9a	-0.23911896
135	0x3d1cf08d	0.038315345
136	0xbe4b246f	-0.19838117
137	0xbd81f56e	-0.0634564
138	0x3baa9e0d	0.0052068294
139	0x3dc951f1	0.09830082
140	0x3e80b701	0.2513962
141	0x3da545a2	0.08069922
142	0x3e974753	0.29546604
143	0x3d499b01	0.04922009
144	0x3e145742	0.14486411
145	0xbdc92ce4	-0.09823015
146	0x3e98d5e5	0.2985069
147	0x3d943313	0.07236304
148	0x3ed83670	0.42229033
149	0xbc85c786	-0.016330492
150	0x3e888eaf	0.2667136
151	0x3d7ce93a	0.06174586
152	0xbd0b1cd2	-0.033963032
153	0xbc06574e	-0.008199526
154	0xbc52e27f	-0.012871384
155	0xbe15c9fe	-0.14627835
156	0xbd8ea71b	-0.069654666
157	0x3d8b99a0	0.06816411
158	0xbe1fbba1	-0.15598918
159	0xbdf58bdc	-0.11989567
160	0x3e58f848	0.21188462
161	0x3d1efff8	0.03881833
162	0xbddbfec7	-0.10741954
163	0xbc350871	-0.011049376
164	0xbd965796	-0.073409244
165	0xbd599c05	-0.053127307
166	0xbd69ab36	-0.057048045
167	0x3e194490	0.14967561
168	0x3d88b6a2	0.066754594
169	0xbcced03c	-0.025245778
170	0xbd9500ff	-0.072755806
171	0x3e44c0b6	0.19214138
172	0x3ebd4637	0.36967632
173	0xbc39c4d8	-0.011338435
174	0xbcb39ac9	-0.021924393
175	0x3eb64e0d	0.35606423
176	0x3cced3af	0.025247423
177	0xbdeb290d	-0.11482439
178	0xbe0856f6	-0.13314423
179	0xbcce2afd	-0.025166983
180	0x3dd54d10	0.10415089
181	0x3cab975d	0.0209462
182	0x3e069b4d	0.1314518
183	0xbe3904dd	-0.18068261
184	0xbe3db5a6	-0.18526325
185	0x3d401827	0.046898033
186	0x3e3517f0	0.17684913
187	0x3dd47eb6	0.10375731
188	0x3dd25215	0.10269562
189	0x3abab08c	0.0014243289
190	0x3d718db3	0.058973026
191	0xbd4d8375	-0.050174195
192	0xbcedd13f	-0.02903044
193	0xbd859df5	-0.065242685
194	0x3e1d200b	0.15344255
195	0x3cce7abf	0.025205014
196	0x3db5646e	0.08857046
197	0xbe278c70	-0.16362166
198	0x3c17164a	0.009221623
199	0x3e107ffa	0.14111319
200	0x3c8ff9f1	0.017575236
201	0x3c3b77be	0.011442123
202	0x3e52fbed	0.20603915
203	0x3e9eb24e	0.3099541
204	0xbe922c7a	-0.28549558
205	0xbd354969	-0.044259463
206	0x3b2b55c4	0.002614365
207	0xbe89037e	-0.26760477
208	0xbdd00ed1	-0.10159076
209	0xbdecd145	-0.115633525
210	0x3ca4fbef	0.020139663
211	0xbd9ad700	-0.07560539
212	0x3de28f1a	0.11062451
213	0x3cdc943f	0.026926158
214	0xbde81f5a	-0.11334105
215	0xbd03feb4	-0.032225326
216	0x3df80ed6	0.12112205
217	0x3e0fb317	0.14033161
218	0x3e7fda24	0.24985558
219	0x3d6b1857	0.05739626
220	0x3dad3a54	0.08458391
221	0x3d9dfc44	0.077141315
222	0xbe2f46ff	-0.17116927
223	0x3e3c50e2	0.1839023
224	0xbd5d1b1b	-0.053980928
225	0x3e50b875	0.20382865
226	0xbd5c901e	-0.05384838
227	0x3d096717	0.03354558
228	0xbde8c10e	-0.11364947
229	0xbe103456	-0.14082465
230	0x3ddde18e	0.10834037
231	0xbbeb022c	-0.0071718898
232	0xbe64aa66	-0.22330627
233	0x3e3112ad	0.1729228
234	0x3d9e76d6	0.0773751
235	0xbdc35f8e	-0.0953971
236	0xbe376688	-0.17910206
237	0xbd8919e3	-0.066943906
238	0xbc8f66eb	-0.01750513
239	0xbd78bc11	-0.06072623
240	0x3e8bb1ed	0.27284184
241	0x3d871577	0.06595891
242	0xbd48600f	-0.048919734
243	0xbdac0bda	-0.08400698
244	0x3db44c0e	0.08803569
245	0x3e5feaa7	0.21866857
246	0x3dc41e99	0.095761485
247	0xbe14cbaf	-0.14530824
248	0xbcf8de0c	-0.030379318
249	0xbd497fb3	-0.04919405
250	0x3d8be254	0.06830278
251	0xbe1a00b7	-0.15039335
252	0x3ca7e651	0.020495566
253	0xbdfb149f	-0.122597925
254	0xbcbe9259	-0.023263143
255	0x3e05767f	0.13033484

bias f4 [128]
0	0xbe924e22	-0.28575236
1	0xbe1cf519	-0.15327872
2	0xbe107c7a	-0.14109984
3	0x3d24e198	0.040254205
4	0xbec789b0	-0.38972235
5	0xbdee78c9	-0.11644132
6	0xbe352ddf	-0.1769328
7	0xbf32ff60	-0.6992092
8	0xbe0524ef	-0.1300237
9	0xbebce471	-0.36893037
10	0xbda3e0f4	-0.08001891
11	0xbe426fbf	-0.1898794
12	0x3b6d909f	0.003624953
13	0x3daaf022	0.08346583
14	0xbd8edd8e	-0.06975852
15	0xbe5c7c48	-0.21531785
16	0x3e2ab8a4	0.16671997
17	0xbe180b33	-0.14848022
18	0xbe799ed5	-0.24376996
19	0xbedb87fa	-0.4287718
20	0x3d6607d4	0.05615981
21	0xbe051fce	-0.13000414
22	0xbe2866a7	-0.16445409
23	0xbe6ee8f8	-0.23331058
24	0xbe9bdeac	-0.30443323
25	0x3d72cfc4	0.059280172
26	0xbe6bc311	-0.2302363
27	0xbdf324dd	-0.118722655
28	0xbeb3548b	-0.3502544
29	0xbe147679	-0.14498319
30	0xbcf649d5	-0.030064503
31	0xbeb15e99	-0.34642485
32	0xbe088ae4	-0.13334233
33	0xbe2ad105	-0.16681297
34	0xbe9798e5	-0.29608837
35	0x3e2fa5f4	0.1715315
36	0xbe6451b5	-0.22296794
37	0x3e17e747	0.14834319
38	0xbf0daab0	-0.55338573
39	0xbef9c637	-0.48784038
40	0xbdec5662	-0.11539914
41	0xbe8efac7	-0.27925703
42	0xbec4da39	-0.3844774
43	0xbd12160f	-0.035665568
44	0xbe3785b8	-0.17922103
45	0xbf11fa4b	-0.5702254
46	0x3c89b2b3	0.016808843
47	0xbede1cc4	-0.4338132
48	0x3f03e362	0.51518834
49	0xbe003fa9	-0.12524284
50	0xbe8218e3	-0.25409612
51	0xbe46927a	-0.19391814
52	0x3e0b440a	0.13600174
53	0x3c41b6c7	0.011823363
54	0x3daf6f20	0.08566117
55	0x3e45e807	0.19326793
56	0x3e77cbd7	0.24198852
57	0xbec3b181	-0.38221362
58	0x3e05a55c	0.13051361
59	0xbda41dec	-0.0801352
60	0xbf127881	-0.57215124
61	0x3e0ecef9	0.13946141
62	0xbd200df2	-0.0390758
63	0x3db8f389	0.09030826
64	0x3dd96688	0.106152594
65	0x3e99d18e	0.3004269
66	0x3ea6b3f3	0.32559165
67	0x3e3c85dd	0.1841044
68	0x3de15d44	0.11004117
69	0x3e50efe3	0.2040401
70	0xbee53067	-0.4476349
71	0xbc218e86	-0.00986064
72	0xbe8d71b4	-0.2762581
73	0x3e3e8e4f	0.18608974
74	0xbe1bfc3e	-0.15232942
75	0xbe84ca50	-0.25935602
76	0x3ea0ae5d	0.3138303
77	0x3d8eeddb	0.06978961
78	0x3e36a389	0.17835821
79	0xbca67e9f	-0.02032405
80	0xbf0caff2	-0.5495597
81	0xbd5f0dab	-0.054456394
82	0xbe00324d	-0.12519188
83	0xbee01d23	-0.4377223
84	0xbe40669a	-0.1878914
85	0xbe674796	-0.22585902
86	0xbd440b3e	-0.047862284
87	0xbe8a53f7	-0.27017185
88	0xbdacebad	-0.08443389
89	0x3e9c1de9	0.3049157
90	0x3e349bd0	0.17637563
91	0x3b40a4e2	0.0029395153
92	0xbc93ac1d	-0.018026406
93	0xbec5f7e8	-0.386657
94	0xbd5d2627	-0.053991463
95	0x3d9c9cd9	0.07647104
96	0xbe747e62	-0.23876336
97	0x3e499bae	0.19688293
98	0x3d9fe773	0.07807817
99	0xbee58b68	-0.4483292
100	0xbe47be17	-0.19506107
101	0xbe9db137	-0.30799267
102	0xbe3f63b7	-0.18690382
103	0x3e260308	0.16212094
104	0x3e17a914	0.14810592
105	0xbe6971e7	-0.22797357
106	0xbe7d13ec	-0.24714631
107	0xbdc4de2d	-0.09612689
108	0xbf8c8c61	-1.098034
109	0xbe3a1657	-0.18172584
110	0xbe7af189	-0.24506201
111	0xbe976ab2	-0.2957359
112	0xbf30c3d6	-0.6904882
113	0xbd8d3d5f	-0.06896471
114	0x3c408ba2	0.011752041
115	0xbec24eb9	-0.37950686
116	0xbeb8e575	-0.36112562
117	0xbc59c06b	-0.013290505
118	0xbd1cc072	-0.038269468
119	0x3e63ef33	0.22259216
120	0x3ecb18cf	0.39667365
121	0x3d3c2ead	0.04594295
122	0xbedb2a81	-0.42805865
123	0xbeb41035	-0.35168615
124	0x3eb172b2	0.34657818
125	0xbe3d5c0d	-0.18492146
126	0xbe13716c	-0.14398736
127	0x3e09b755	0.13448842

weight f4 [128, 128]
0	0x3e5a928c	0.21344966
1	0xbd8a7ccb	-0.067620836
2	0x3e3ff6b1	0.18746449
3	0x3e682cf0	0.22673392
4	0xbe498dbb	-0.19682972
5	0x3de7d348	0.113195956
6	0xbd3256a1	-0.043539647
7	0xbcb08c06	-0.021551143
8	0x3e76b34a	0.24091831
9	0x3d5c06e3	0.053717505
10	0x39eaa42c	0.00044754276
11	0x3e211822	0.15731862
12	0x3ce2f948	0.027706757
13	0xbd7db014	-0.0619355
14	0xbe1ece5f	-0.15508412
15	0xbe21ee53	-0.1581357
16	0xbd4fd30a	-0.050738372
17	0xbc6e36d4	-0.014539439
18	0x3e7c5bd5	0.24644406
19	0x3d6dcd13	0.058056902
20	0x3e42d08c	0.19024867
21	0xbb9c6061	-0.0047722314
22	0xbc0d4a12	-0.008623617
23	0xbdc860eb	-0.09784111
24	0xbcde023f	-0.02710068
25	0x3c63bfbc	0.0139006935
26	0xbe3c3413	-0.1837924
27	0x3d27d351	0.04097301
28	0xbd74b2e8	-0.05974093
29	0xbdd5291f	-0.10408234
30	0x3c7a6fec	0.015285473
31	0x3b948d0e	0.0045334166
32	0x3dd9cefc	0.10635182
33	0xbd49671c	-0.0491706
34	0x3d0ac808	0.03388217
35	0x3d010be7	0.03150549
36	0xbe01096c	-0.1260125
37	0xbe05283c	-0.1300363
38	0xbd172931	-0.036904518
39	0xbe2570f0	-0.16156363
40	0xbbd9a9a4	-0.006642537
41	0xbe2371eb	-0.15961425
42	0x3e90f399	0.2831085
43	0x3d375e48	0.044767648
44	0xbddc6c4c	-0.107628435
45	0x3d94bfb7	0.07263129
46	0x3ba751c2	0.005106182
47	0xbd943c1c	-0.072380275
48	0x3d44635a	0.04794631
49	0xbb524024	-0.0032081688
50	0x3da82d9a	0.08211823
51	0xbdd7bd65	-0.10534171
52	0x3be864f4	0.0070921127
53	0xbd14843c	-0.03625892
54	0xbd952bbd	-0.07283733
55	0xbe3c1211	-0.18366267
56	0x3e6e4e1e	0.23271987
57	0x3dbf36b9	0.093366094
58	0x3d253181	0.040330414
59	0x3d623e87	0.055235412
60	0xbe5768c8	-0.21036065
61	0x3d100218	0.035158247
62	0xbda5573a	-0.08073278
63	0xbdc51032	-0.0962223
64	0x3d19e028	0.037567288
65	0x3d8a7d49	0.067621775
66	0x3c5b9612	0.013402479
67	0x3e0e4a52	0.13895538
68	0x3c8f7d4d	0.017515803
69	0xbe165f39	-0.14684762
70	0x3d47d140	0.04878354
71	0x3ca578d0	0.02019921
72	0x3e2f78bd	0.17135902
73	0x3d6b1003	0.057388317
74	0x3e023eb5	0.12719233
75	0x3ce53003	0.027976995
76	0xbcdc2062	-0.02687091
77	0xbc8aa0cc	-0.016922377
78	0xbe61bbfe	-0.2204437
79	0xbd881d2a	-0.066461876
80	0x3cce36c2	0.025172595
81	0x3d8ad089	0.06778056
82	0x3e7d4c83	0.24736218
83	0xbda91901	-0.08256722
84	0xbd1a52ce	-0.037676625
85	0xbca78dba	-0.020453323
86	0xbbe1ee0f	-0.006894834
87	0xbe3c1ed6	-0.18371138
88	0x3b5c635a	0.0033628554
89	0x3c578c77	0.013156048
90	0x3e0d7cf5	0.13817199
91	0x3c26cc07	0.01018048
92	0xbe95e2d1	-0.2927461
93	0xbd26cff8	-0.04072568
94	0x3d839a73	0.06425943
95	0xbe036663	-0.12832026
96	0x3e0eaddb	0.13933508
97	0xbd65c991	-0.05610043
98	0xbdd0b955	-0.10191599
99	0x3d9d149e	0.07669948
100	0x3c0b25dd	0.008492914
101	0x3d360635	0.044439513
102	0x3d917426	0.07102232
103	0x3d24ec53	0.04026444
104	0x3dc5fddd	0.09667561
105	0x3b21f6dc	0.002471379
106	0xbe99d211	-0.3004308
107	0x3a8a27e3	0.0010540452
108	0x3e502549	0.20326723
109	0x3e0ec990	0.13944077
110	0x3e58fc74	0.21190053
111	0xbe0375e8	-0.12837946
112	0x3c6ebb09	0.01457096
113	0xbcdf04cc	-0.027223967
114	0xbd4a2c01	-0.04935837
115	0xb9f8aada	-0.0004742954
116	0xbc8a6e03	-0.01689816
117	0xbc886d71	-0.016653748
118	0xbd9e865a	-0.07740469
119	0xbe10c2d9	-0.14136828
120	0x3d0d17fa	0.034446694
121	0xbdb21d31	-0.08696974
122	0xbe40347a	-0.18770018
123	0x3dfd83b4	0.12378636
124	0xbdc8caa0	-0.09804273
125	0xbdb7ff43	-0.08984234
126	0xbdc71655	-0.09721056
127	0xbe1b81cd	-0.15186234
128	0x3c4da0ff	0.0125505915
129	0xbdc3a84a	-0.09553583
130	0xbdc9aa44	-0.09846929
131	0x3d3245dd	0.043523658
132	0xbdfb5eb5	-0.12273923
133	0x3df9a1d2	0.12189068
134	0x3c100a47	0.008791513
135	0x3e5f4397	0.21803127
136	0xbe6e2111	-0.23254801
137	0x3dbb0564	0.091318876
138	0xbd446306	-0.047946
139	0xbe088481	-0.13331796
140	0x3e5f2271	0.21790482
141	0xbe18cc40	-0.14921665
142	0x3daa6001	0.083190925
143	0xbde4cd3a	-0.11171956
144	0xbdb24396	-0.08704297
145	0x3db4cb76	0.088278696
146	0xbc90b9ab	-0.017666658
147	0xbd7a7b65	-0.061152834
148	0xbe26f8a7	-0.16305791
149	0x3dfaee82	0.12252523
150	0xbdb1add4	-0.08675733
151	0x3ced6ff4	0.028984047
152	0x3e55b402	0.20869449
153	0x3ddf156f	0.1089276
154	0x3e527d0d	0.20555516
155	0xbdfb2543	-0.122629665
156	0xbd3b4a8c	-0.04572539
157	0xbd8dbc3a	-0.06920667
158	0x3df0ade6	0.117519185
159	0xbe4405d1	-0.19142844
160	0xbce8274c	-0.02833905
161	0xbdd0d432	-0.10196723
162	0xbb1922e3	-0.0023366741
163	0x3e02f0c4	0.12787157
164	0x3cd21330	0.025643915
165	0xbbb2af61	-0.0054530357
166	0xbd36272f	-0.044470962
167	0x3dbc53e5	0.09195689
168	0xbbc394db	-0.0059686727
169	0xbc502ce5	-0.012706016
170	0x3c8c2730	0.01710853
171	0xbd0f807a	-0.035034634
172	0x3e35ac26	0.1774145
173	0xbe2d79fe	-0.16941068
174	0xbe2081ed	-0.15674563
175	0x3e313eeb	0.17309158
176	0xbe23bbf3	-0.15989666
177	0x3df31399	0.11868972
178	0x3b8d19d3	0.004306057
179	0x3e7470a4	0.23871094
180	0xbbf5e32d	-0.007503888
181	0xbd9429d9	-0.07234544
182	0xbd9d27cc	-0.07673606
183	0x3da037ae	0.0782312
184	0x3cfa07cf	0.030521302
185	0xbd004e15	-0.031324465
186	0xbddc9336	-0.10770266
187	0x3dd3d8e3	0.10344102
188	0xbe1826cc	-0.1485855
189	0xbb3d587f	-0.002889186
190	0xbdf18cd7	-0.11794441
191	0xbd78925f	-0.060686465
192	0x3dfa4f73	0.12222185
193	0xbe6fbd0b	-0.23411958
194	0xbe42f462	-0.19038537
195	0xbd0b9716	-0.034079634
196	0xbdff4e09	-0.12466056
197	0x3decd2e1	0.115636595
198	0xbe5e7803	-0.21725468
199	0x3e11702a	0.14202943
200	0x3d1b950f	0.03798395
201	0xbc9c8fbd	-0.019111509
202	0x3e3acb23	0.18241553
203	0x3d07e146	0.033173822
204	0xbdeb3b31	-0.11485899
205	0xbd1d769c	-0.038443193
206	0x3e42f150	0.19037366
207	0x3d6fc258	0.05853495
208	0x3dbd86f3	0.09254255
209	0x3d03d1b2	0.032182403
210	0xbd851680	-0.06498432
211	0xbd75629c	-0.059908494
212	0x3e4c3d69	0.19945301
213	0xbe1514b6	-0.14558682
214	0xbe3f470b	-0.18679444
215	0x3dfe2d88	0.12411028
216	0x3e9bd6ac	0.3043722
217	0x3e2a9162	0.16657022
218	0x3d9bd9dc	0.07609913
219	0x3e1e8fdf	0.1548457
220	0xbcf3e627	-0.029772831
221	0xbd807826	-0.062729165
222	0x3e28040b	0.16407792
223	0x3d94d060	0.07266307
224	0xbd7775f4	-0.060415223
225	0x3d582d6c	0.052777693
226	0x3e45afac	0.19305295
227	0x3e93c017	0.2885749
228	0xbdb34574	-0.087534815
229	0xbd1322cd	-0.03592186
230	0xbc7bdf5c	-0.015373077
231	0x3e68ea62	0.2274566
232	0xbdc13814	-0.09434524
233	0xbc0dc2fe	-0.008652447
234	0xbdfff2fe	-0.12497519
235	0xbe260069	-0.16211094
236	0x3c9dda29	0.019269066
237	0x3e00da2c	0.12583226
238	0xbc9e83ad	-0.019349897
239	0x3df2e2fd	0.11859701
240	0xbe16061c	-0.14650768
241	0x3cf46fd5	0.029838482
242	0x3e01991e	0.12656066
243	0xbde56d5d	-0.112025
244	0xbd52a563	-0.051427256
245	0x3d7f408c	0.062317416
246	0xbda9308e	-0.08261214
247	0x3d823eb4	0.06359616
248	0xbcb0014f	-0.021484999
249	0xbd279ac6	-0.040919088
250	0x3d909a4b	0.07060679
251	0x3e0e65fd	0.13906093
252	0x3debef21	0.115202196
253	0x3d2405d9	0.04004464
254	0x3cc7bfdc	0.024383478
255	0x3e6b2d83	0.2296658

bias f4 [128]
0	0x3d5a81b6	0.05334636
1	0xbd46b7f0	-0.04851526
2	0x3d3785cb	0.04480533
3	0xbd8a80ba	-0.06762834
4	0xbde9dc9d	-0.11419032
5	0x3d065e24	0.032804623
6	0xbd6bcb39	-0.057566855
7	0xbe3c02af	-0.18360399
8	0xbdb2c235	-0.08728448
9	0xbd4dba43	-0.05022646
10	0xbe08d014	-0.13360626
11	0xbd5f1c3a	-0.05447028
12	0xbd85ac78	-0.065270364
13	0x3d8088d9	0.062761016
14	0xbd9ff171	-0.07809723
15	0xbdc2d59d	-0.095134
16	0xbe216443	-0.15760903
17	0xbd981611	-0.07426084
18	0xbcd0481f	-0.025425015
19	0xbd9b822f	-0.0759319
20	0xbdbd5d08	-0.0924626
21	0xbd397f6e	-0.045287542
22	0xbd1784fd	-0.036992062
23	0xbcd09b37	-0.025464637
24	0xbd62c1a1	-0.05536044
25	0xbb9d2000	-0.0047950745
26	0x3d983aa8	0.07433063
27	0xbdb2cfc2	-0.08731033
28	0x3d22d390	0.039752543
29	0xbdfd50de	-0.1236894
30	0xbdb9eee9	-0.090787716
31	0xbe120194	-0.14258415
32	0xbe048883	-0.129427
33	0x3d8cb48a	0.068703726
34	0xbd3b00cd	-0.04565506
35	0xbd8d522f	-0.06900441
36	0x3b09064a	0.002090829
37	0xbdcefa7f	-0.10106372
38	0xbd96fee3	-0.073728345
39	0x3bd7dea8	0.006587822
40	0x3da06a14	0.07832733
41	0x3cebc447	0.028780116
42	0x3d71c2dc	0.059023723
43	0x3d8e6d75	0.06954471
44	0xbdbddb30	-0.09270322
45	0x3d34b277	0.04411551
46	0x3c823851	0.015895994
47	0x3d982c9a	0.07430382
48	0x3d3f55cd	0.046712685
49	0xbd5a1097	-0.053238478
50	0xbdd6d6bd	-0.10490177
51	0x3c139f9a	0.00901022
52	0x3d511c2e	0.051052265
53	0xbc413dc9	-0.011794516
54	0xbdaf2041	-0.08551074
55	0x3d27467d	0.040838707
56	0xbe0b93f1	-0.13630654
57	0xbf15b82d	-0.58484155
58	0xbdc50ac3	-0.09621193
59	0x3dc5f51e	0.09665893
60	0xbdfa757c	-0.122294396
61	0xbdc60498	-0.09668845
62	0xbd350ea6	-0.044203423
63	0xbe08eb0b	-0.13370912
64	0xbc8dd47a	-0.01731323
65	0x3dc2ff41	0.09521342
66	0xbce5952b	-0.02802523
67	0xbe1b1633	-0.15145187
68	0xbc07831b	-0.008271004
69	0xbc23af77	-0.009990565
70	0xbcde38d2	-0.027126703
71	0xbdb3cc06	-0.08779149
72	0x3af1c42b	0.0018445303
73	0xbe266162	-0.16248086
74	0xbda864c1	-0.08222342
75	0x3c15648a	0.009118209
76	0x3c83157d	0.016001457
77	0xbb29f16c	-0.0025931252
78	0xbe45beaf	-0.19311021
79	0x3c70ab27	0.014689243
80	0xbd5ecbf5	-0.054393727
81	0xbb9b2517	-0.004734646
82	0xbe413f69	-0.18871845
83	0x3d869f88	0.06573397
84	0xbdf2aad7	-0.11848991
85	0x3d7f89d9	0.06238732
86	0xbd9a6ed8	-0.07540673
87	0xbb72222a	-0.0036946633
88	0xbd5af778	-0.05345866
89	0xbdae39e3	-0.08507135
90	0xbdbf66bb	-0.09345766
91	0x3d3d1f30	0.04617232
92	0xbcb55c57	-0.022138758
93	0xbd2a8121	-0.041627053
94	0x3d5c7a63	0.053827655
95	0x3cd1c4c6	0.025606524
96	0xbd687208	-0.056749374
97	0xbcb41c36	-0.021986108
98	0x3da0dba9	0.07854397
99	0xbdad129f	-0.08450817
100	0xbdd806cc	-0.105481714
101	0xbe15480e	-0.14578268
102	0x3b862f85	0.0040950202
103	0xbd709992	-0.058740206
104	0x3b2e0e84	0.0026558945
105	0xbd92c6dc	-0.07166836
106	0xbe33149a	-0.17488328
107	0x3ca74da9	0.020422773
108	0xbe13a505	-0.14418419
109	0x3d1da676	0.038488828
110	0xbded2d32	-0.11580886
111	0xbb885838	-0.004160907
112	0xbc95b479	-0.018274533
113	0xbcf1d26b	-0.02951928
114	0xbd9ec07e	-0.07751559
115	0x3d607666	0.054800414
116	0x3d4869a2	0.048928864
117	0xbdc042da	-0.09387751
118	0xbdb72982	-0.08943464
119	0x3c654c4c	0.013995241
120	0xbe13313d	-0.14374252
121	0xbda746be	-0.0816779
122	0x3a8af69f	0.0010602063
123	0xbde68e39	-0.112575956
124	0xbe3ec399	-0.18629302
125	0x3d4e55a0	0.050374627
126	0x3b46527c	0.0030261567
127	0xbe32b9be	-0.17453668

weight f4 [1, 128]
0	0x3b50e360	0.0031873807
1	0xbbc09706	-0.0058773784
2	0x3cb1fa17	0.021725697
3	0x3c306d61	0.010768265
4	0xbdbbd52e	-0.0917152
5	0xbbc19206	-0.0059073
6	0xbc046b11	-0.008082167
7	0xbe0c144c	-0.13679618
8	0xbbac15fb	-0.0052516437
9	0x3d1992b6	0.03749343
10	0xbcc32f39	-0.023826228
11	0xbb098aa4	-0.0020987177
12	0xbd993b39	-0.07481999
13	0x3c133e08	0.008986957
14	0xbe519f10	-0.20470834
15	0xbdee2ad0	-0.116292596
16	0xbc8574d1	-0.016291054
17	0xbc94e5d2	-0.018175993
18	0x3c83f23b	0.016106715
19	0xbe3a7bd6	-0.18211302
20	0xbaa786ef	-0.0012781302
21	0xbc179ca8	-0.009253658
22	0xbccdc888	-0.025120035
23	0xba1ad582	-0.0005906449
24	0xbbe1dd9e	-0.006892874
25	0xbada0b94	-0.0016635531
26	0x3ce3e914	0.027821101
27	0xbd99575c	-0.074873656
28	0x3cec928f	0.028878478
29	0x3b493026	0.0030698865
30	0xbda11493	-0.07865252
31	0x3cb0c765	0.021579454
32	0x3af23f23	0.0018481951
33	0xbab0e63b	-0.0013496348
34	0xbb0ff239	-0.0021964444
35	0x3c9ae72c	0.01890906
36	0xbba13b7a	-0.0049204202
37	0x3cd70432	0.026247118
38	0x3b0fcb97	0.0021941417
39	0xbba9ab97	-0.005177926
40	0xbc6bf7c3	-0.014402333
41	0xbc4a40b6	-0.01234453
42	0x3c242096	0.010017535
43	0x3d5bf00e	0.05369573
44	0xbba9affc	-0.0051784497
45	0x3cb93da2	0.022612397
46	0x3c4fb0a6	0.012676394
47	0xbb9bfd73	-0.004760438
48	0x3c13bf8a	0.009017834
49	0xbcf88ab6	-0.03033958
50	0xbb99a47a	-0.0046887966
51	0xbc0bd411	-0.008534447
52	0x3bdfe207	0.0068323645
53	0xbc528a7f	-0.012850403
54	0xbcd9004a	-0.026489396
55	0xba1a56e2	-0.00058875803
56	0xbbb1235d	-0.005405827
57	0xbd83b3c3	-0.06430771
58	0xbc162f9f	-0.009166627
59	0xbbb936ff	-0.005652308
60	0xbce5eeea	-0.028068025
61	0x3b6bf8c9	0.0036006442
62	0xbd7d1f6f	-0.061797556
63	0x3a76df12	0.00094173953
64	0xbde92403	-0.11383822
65	0x3d82cc48	0.0638662
66	0x3dcd4028	0.100220025
67	0x3ca3186f	0.019909112
68	0xbc7221aa	-0.014778534
69	0xbad785c3	-0.0016443062
70	0xbe24016b	-0.16016166
71	0x3a17943d	0.0005782282
72	0xbd1ff65f	-0.039053317
73	0xbb969c3a	-0.0045962604
74	0x3bd9d887	0.0066481265
75	0x3cfff957	0.031246824
76	0xbd4438dd	-0.04790579
77	0xbc5e95d8	-0.01358553
78	0xbe1a7a88	-0.15085804
79	0xbbeb8482	-0.007187427
80	0x3b9b4434	0.004738355
81	0x38a28cc9	7.750985e-05
82	0x3ce37d3f	0.027769683
83	0xbcd044ec	-0.02542349
84	0x3d4e85f2	0.05042071
85	0x3a95453b	0.001138843
86	0xbd4946e2	-0.049139865
87	0x3ae45ee2	0.0017423297
88	0x3d06ae26	0.032880925
89	0x3c08efed	0.008357984
90	0x3b0330e4	0.0020018155
91	0x3c95c837	0.018283946
92	0xbd10ef75	-0.035384614
93	0x3dc0b965	0.09410361
94	0x3d9c956c	0.076456875
95	0x3e9232b2	0.28554302
96	0x3b8dab73	0.004323417
97	0x3c00fcd0	0.007872775
98	0x3d728654	0.059210137
99	0xbb3ee23f	-0.0029126552
100	0xbc429478	-0.011876218
101	0xbd93c88f	-0.07215988
102	0xbb936765	-0.0044984096
103	0xbbd443c8	-0.0064778067
104	0xbbb77743	-0.005598934
105	0xbc84197a	-0.01612543
106	0xbd85baae	-0.06529747
107	0xba8b05cd	-0.0010606587
108	0xba81a329	-0.0009890544
109	0x38bfc8d2	9.1449954e-05
110	0xbd8ab811	-0.06773389
111	0xbdd86035	-0.10565225
112	0x3be3b363	0.006948875
113	0xbbc9e2ce	-0.0061610704
114	0x3ad86528	0.0016509639
115	0xbc9f414c	-0.019440316
116	0xbc47220c	-0.0121541135
117	0x3cc9e179	0.024643647
118	0x3c623a08	0.013807781
119	0x3c007f26	0.007842815
120	0xbbd9fde2	-0.0066525796
121	0xbcb66dd5	-0.022269169
122	0xbc629267	-0.01382885
123	0xbb91e9c8	-0.0044529177
124	0xbc82910a	-0.0159383
125	0x3c800e36	0.015631776
126	0x3d95c19e	0.0731232
127	0xba294d0f	-0.0006458321

weight f4 [128, 45]
0	0xbe892c4b	-0.26791605
1	0x3d9769c7	0.07393222
2	0xbe9bfdae	-0.3046698
3	0xbd0227cb	-0.03177623
4	0x3e1d6c9d	0.15373464
5	0x3ab8a3f3	0.0014086947
6	0x3f161c16	0.58636606
7	0xbeaa3b17	-0.33248207
8	0xbeae1a04	-0.34004223
9	0x3e83f209	0.25770596
10	0xbda6a03c	-0.08136031
11	0xbcb514c8	-0.022104636
12	0x3dd612c2	0.104527965
13	0xbb1423d9	-0.0022604375
14	0x3ddcbb7f	0.107779495
15	0x3dab8f1f	0.083769076
16	0xbd09c93b	-0.033639174
17	0xbdda9a33	-0.106739424
18	0xbda110a0	-0.07864499
19	0x3cbf4490	0.023348123
20	0xbdc6c758	-0.097059906
21	0xbe4f75f7	-0.20259844
22	0x3da37c09	0.07982642
23	0xba02d00f	-0.00049901096
24	0xbd203ae5	-0.039118666
25	0x3dd4a177	0.103823595
26	0x3d7f3cd2	0.062313862
27	0x3e2e5ba4	0.17027146
28	0xbd5faded	-0.054609228
29	0xbd8586bb	-0.065198384
30	0xbdc4ffc1	-0.09619094
31	0x3db695e2	0.08915307
32	0x3e4f1b24	0.20225197
33	0x3dca81b1	0.09888018
34	0x3e37eb8f	0.17960952
35	0xbd037ab9	-0.03209946
36	0x3d25a3cb	0.04043941
37	0x3c6b6460	0.014367193
38	0x3db87564	0.090067655
39	0x3e3f7049	0.18695177
40	0xbd93f7c0	-0.07224989
41	0xbdd7cde7	-0.1053732
42	0x3d1e69d7	0.038675155
43	0x3d983a55	0.07433001
44	0xbcf2cb26	-0.029637884
45	0x3e9d49ab	0.30720267
46	0x3e894187	0.26807806
47	0xbd63e379	-0.055636857
48	0x3e4b0abf	0.19828318
49	0x3cc6719a	0.024224091
50	0xbdc4e3cc	-0.09613761
51	0xbd856f66	-0.06515388
52	0xbd4394ef	-0.047749456
53	0x3e1c8690	0.15285707
54	0x3c93c24c	0.018036984
55	0xbd66fea6	-0.056395195
56	0x3c8b60bf	0.017013906
57	0xbc5bb6c0	-0.01341027
58	0xbe5bd5af	-0.21468233
59	0x3b90bb6e	0.0044168746
60	0x3d0d2335	0.034457404
61	0xbe557d81	-0.20848657
62	0x3e19f322	0.15034154
63	0x3db9d2f3	0.090734385
64	0x3dc4a63a	0.09602018
65	0x3de6803e	0.11254929
66	0xbccb5d4f	-0.024824766
67	0xbe065b25	-0.13120706
68	0xbe36c9d1	-0.17850424
69	0x3c882691	0.016619952
70	0xbd83255b	-0.06403609
71	0x3e75ab53	0.23991136
72	0x3e1700c9	0.14746393
73	0x3d37c4c2	0.044865377
74	0xbe3f244e	-0.18666193
75	0xbca7371d	-0.020412022
76	0xbd741d79	-0.05959842
77	0xbd1a4557	-0.037663784
78	0x3de5153b	0.1118569
79	0x3d22ec96	0.039776407
80	0x3e17d143	0.14825921
81	0x3e78eeef	0.24309896
82	0x3decbe3d	0.115597226
83	0xbdb28114	-0.08716026
84	0xbded1ba9	-0.115775414
85	0x3d83dd68	0.06438714
86	0x3e992b5f	0.29915902
87	0xbcba8c63	-0.02277202
88	0x3d89c24f	0.067265145
89	0xbd80ddfb	-0.062923394
90	0x3ed062e5	0.4070045
91	0xbe040131	-0.1289108
92	0x3de1b1c9	0.11020238
93	0x3db59bf4	0.08867636
94	0xbda47bda	-0.08031435
95	0x3d94aa14	0.07259002
96	0xbcdd68ce	-0.027027514
97	0x3cf0c409	0.029390352
98	0xbce863a8	-0.028367832
99	0xbde9cd37	-0.11416095
100	0x3af0d845	0.0018375
101	0x3d04c0a1	0.032410268
102	0xbbe5b186	-0.007009688
103	0xbd0edb0d	-0.03487687
104	0x3db79232	0.089634314
105	0x3cf77636	0.030207735
106	0xbe44b503	-0.19209675
107	0x3ec4da56	0.38447827
108	0xbc2299bc	-0.009924348
109	0x3bfd714f	0.0077344547
110	0xbe1eb25c	-0.15497726
111	0x3e96f3fb	0.29483017
112	0xbc433cb8	-0.011916332
113	0x3da19ff7	0.07891839
114	0xbd1bed10	-0.038067877
115	0x3da95900	0.082689285
116	0x3cd665fb	0.026171675
117	0x3dcf93b4	0.10135594
118	0xbe227add	-0.15867181
119	0x3c449b3d	0.011999902
120	0x3d2e260f	0.042516764
121	0x3d987842	0.07444812
122	0x3e06309b	0.13104479
123	0xbdd30d96	-0.10305326
124	0x3d6b2c78	0.057415456
125	0xbec77501	-0.38956454
126	0x3e0dc775	0.13845618
127	0x3ce0bb37	0.027433021
128	0x3e6f878b	0.2339155
129	0xbd3c2f84	-0.045943752
130	0x3cb6d925	0.02232034
131	0x3eab3fda	0.33447152
132	0x3e12e3f5	0.14344771
133	0x3e159ed8	0.14611375
134	0xbe331d52	-0.17491654
135	0x3c7d48f1	0.015459285
136	0x3b1180c1	0.0022201987
137	0xbdaad87f	-0.083420746
138	0xbdc91135	-0.09817735
139	0xbd266dbc	-0.040631995
140	0xbdc420ee	-0.09576593
141	0xbe93f444	-0.28897297
142	0x3ec30814	0.380921
143	0xb9c84848	-0.00038200826
144	0xbdacd26f	-0.084385745
145	0xbe57c77d	-0.21072192
146	0x3e05d9d3	0.13071375
147	0x3ebcbcb9	0.36862734
148	0x3d849631	0.06473959
149	0x3e820d4c	0.2540077
150	0x3dc4284c	0.095779985
151	0x3cec6847	0.028858317
152	0xbe9358c3	-0.28778657
153	0x3e586bdd	0.21134897
154	0xbe052e70	-0.13005996
155	0x3e9b16d8	0.30290866
156	0xbda41bef	-0.080131404
157	0xbb87e5ad	-0.0041472525
158	0xbe51c2c5	-0.20484455
159	0xbd972a49	-0.07381112
160	0xbde5025e	-0.11182092
161	0xbc1a76d7	-0.009427748
162	0xbc9d76af	-0.019221632
163	0xbc9ecc71	-0.019384595
164	0x3dad9823	0.084762834
165	0x3d83755e	0.064188704
166	0x3dfa51f5	0.12222663
167	0xbd77d794	-0.060508326
168	0xbe38091a	-0.17972222
169	0x3e9aeb03	0.30257425
170	0x3dc006f8	0.09376329
171	0xbcbfc344	-0.02340854
172	0x3eb6c950	0.35700464
173	0xbdf18c9a	-0.11794396
174	0xbdd7d4f2	-0.10538663
175	0x3dbae1dd	0.09125111
176	0x3e363fe6	0.17797813
177	0x3e2c87d7	0.16848694
178	0x3d3caa91	0.046061102
179	0xbc3aacdb	-0.011393751
180	0xbdc59d15	-0.09649102
181	0xbeb5a3d9	-0.35476568
182	0x3dd280a6	0.10278444
183	0x3d4c4051	0.049866024
184	0x3e38b3d1	0.18037345
185	0x3d1e3492	0.038624354
186	0x3e439e93	0.1910346
187	0x3e94b067	0.29040834
188	0xbe9051ec	-0.281875
189	0xbd94fa86	-0.07274346
190	0xbdf3588f	-0.118821256
191	0x3e81e6b6	0.2537133
192	0xbd20a247	-0.03921726
193	0xbb8382f8	-0.0040134154
194	0xbe1b3bda	-0.1515955
195	0xbe55d5f8	-0.20882404
196	0x3dc926d0	0.09821856
197	0x3dc8b5ee	0.09800325
198	0x3de072f8	0.109594285
199	0xbe24a4ad	-0.16078444
200	0x3e0f29ad	0.13980742
201	0x3c821d9d	0.015883261
202	0xbd3af380	-0.045642376
203	0xbd932e18	-0.07186526
204	0xbd50df42	-0.050994165
205	0x3d030e27	0.03199592
206	0xbd5a0920	-0.05323136
207	0xbe8dfb49	-0.27730778
208	0xbb69105a	-0.0035562725
209	0x3d2f22df	0.042757865
210	0xbc885579	-0.016642319
211	0xbdabe5ca	-0.08393438
212	0xbcb151fc	-0.021645539
213	0x3e781507	0.24226771
214	0xbdce7dbb	-0.10082575
215	0x3dcb3673	0.09922495
216	0x3e87ea6a	0.2654603
217	0xbc33788c	-0.010954034
218	0xbd9c1bf2	-0.07622518
219	0xbe3b08c3	-0.18265061
220	0xbcd54989	-0.02603604
221	0x3e47d1f4	0.19513685
222	0xbe0acf35	-0.13555606
223	0x3cd40f79	0.025886284
224	0xbd9d5000	-0.076812744
225	0x3d783c81	0.060604576
226	0xbe3180d5	-0.17334302
227	0x3e64ece2	0.22355989
228	0xbd7520cd	-0.059845734
229	0xbdba77f8	-0.091049135
230	0x3dcd39c7	0.10020786
231	0x3e362961	0.17789222
232	0x3e98a468	0.29812932
233	0x3d1e306b	0.038620394
234	0xbe00214d	-0.12512703
235	0xbdc33a19	-0.095325656
236	0xbd10f2c9	-0.035387788
237	0xbddf5819	-0.10905475
238	0xbe3aed53	-0.18254595
239	0x3e189b4b	0.1490299
240	0x3e87a061	0.26489547
241	0x3cd05d64	0.025435157
242	0x3d4e0535	0.050297935
243	0x3c38d3c6	0.0112809595
244	0x3d4c1e06	0.04983332
245	0x3a8475f8	0.0010105958
246	0x3b5ef496	0.0034020296
247	0x3ba8a522	0.0051466385
248	0xbd8e1110	-0.06936848
249	0xbccb4577	-0.024813397
250	0xbdec4ba0	-0.11537862
251	0x3be8aeb8	0.007100906
252	0xbc1f892f	-0.009737297
253	0x3e6d32b6	0.23163876
254	0x3d5758bf	0.05257487
255	0x3de5708b	0.112031065

bias f4 [128]
0	0xbdb07246	-0.08615546
1	0x3dc2c28a	0.09509762
2	0x3cce6480	0.025194407
3	0xbd805de9	-0.06267912
4	0xbd84caf9	-0.064840265
5	0x3e8c2a11	0.27375844
6	0x3bd8c5f1	0.0066153933
7	0x3dc31d20	0.095270395
8	0x3d45303c	0.048141703
9	0x3d945658	0.07243031
10	0xbe08e20e	-0.13367483
11	0x3dfc7f7a	0.12329002
12	0x3e3988a2	0.18118528
13	0x3e99e894	0.30060256
14	0xbdcd72bd	-0.1003165
15	0xbe109b76	-0.14121804
16	0xbe425f0d	-0.18981571
17	0x3e70e910	0.23526406
18	0x3d68010e	0.05664163
19	0x3ecf8d0e	0.40537304
20	0xbe7d1c86	-0.24717912
21	0xbd595ae8	-0.05306521
22	0x3e356b44	0.177167
23	0x3e558474	0.20851308
24	0x3e19ea34	0.15030748
25	0x3e94950a	0.29019958
26	0x3ded7178	0.11593908
27	0xbdaf3116	-0.08554284
28	0xbdd16e17	-0.10226076
29	0xbd860345	-0.06543592
30	0xbe0b7c84	-0.13621718
31	0x3e18617a	0.14880934
32	0xbdb8f8db	-0.090318404
33	0x3d8f9309	0.070104666
34	0xbb89df77	-0.0042075473
35	0xbc1ca31d	-0.009560374
36	0xbebaaf14	-0.364617
37	0x3dd2d392	0.1029426
38	0xbe583715	-0.21114762
39	0x3e8116fa	0.25212842
40	0xbeac4c69	-0.33652046
41	0xbe8de966	-0.2771713
42	0xbd947982	-0.07249738
43	0x3ceee671	0.029162617
44	0x3e47609a	0.19470444
45	0x3df45fd3	0.119323395
46	0xbe6a2092	-0.22863987
47	0xbe56a39a	-0.20960847
48	0xbde14cb1	-0.11000956
49	0x3cf89274	0.030343272
50	0x3cbc9153	0.023018515
51	0xbe3919bd	-0.18076225
52	0xbe2d093e	-0.16898057
53	0xbc9a7a7f	-0.018857239
54	0xbcdcc659	-0.026950048
55	0x3cc8454c	0.024447106
56	0xbe028a49	-0.12748064
57	0xbe424104	-0.18970114
58	0xbd86a73a	-0.06574865
59	0xbd109c04	-0.035305038
60	0xbe0134d6	-0.12617812
61	0x3d67418d	0.056459
62	0xbe1e18ae	-0.15439102
63	0xbe07147a	-0.13191405
64	0x3df161a9	0.11786205
65	0x3e764fc8	0.24053872
66	0xbe63692b	-0.22208087
67	0xbe35d6b4	-0.17757684
68	0x3b899739	0.0041989353
69	0x3e4f6d1c	0.20256466
70	0x3c1ad272	0.009449588
71	0xbe40edf2	-0.18840769
72	0xbda96c26	-0.08272581
73	0xbe63ef1b	-0.2225918
74	0xbed00cfb	-0.40634903
75	0x3d131ebe	0.03591799
76	0xbd9fdfec	-0.078063816
77	0x3e4b6281	0.19861795
78	0xbda9504e	-0.0826727
79	0xbe059951	-0.13046767
80	0x3d65e398	0.056125253
81	0xbe732189	-0.23743261
82	0xbe3e5fc6	-0.18591222
83	0x3e76c0c6	0.24096975
84	0x3d92a674	0.07160655
85	0x3e1c26da	0.15249196
86	0x3e379958	0.1792959
87	0xbd865cbb	-0.06560656
88	0x3e1ac097	0.1511253
89	0x3e8d891a	0.27643663
90	0xbea3fc7f	-0.32028577
91	0xbb82a75f	-0.0039872373
92	0x3ea4c02e	0.3217787
93	0xbe8fa501	-0.28055575
94	0x3e80e17e	0.25172037
95	0xbdb8802b	-0.09008821
96	0xbeab7f19	-0.33495405
97	0xbcbc42a5	-0.022980997
98	0xbea867e6	-0.32891768
99	0xbe0e4e29	-0.13897003
100	0xbe6a920a	-0.22907272
101	0x3d888950	0.06666815
102	0x3cf4f467	0.029901696
103	0xbcd74441	-0.026277663
104	0xbec5803e	-0.38574404
105	0xbe033bc9	-0.12815775
106	0xbea3f591	-0.3202329
107	0xbd403ae4	-0.046931162
108	0xbd3447e0	-0.044013858
109	0xbeb796eb	-0.3585733
110	0xbf0833be	-0.5320395
111	0x3c684067	0.014175511
112	0xbe1a45f8	-0.15065753
113	0xbe3dbc96	-0.18528971
114	0xbe4d3150	-0.20038342
115	0x3e933e87	0.28758642
116	0xbe873a80	-0.2641182
117	0x3e7f2fd4	0.24920589
118	0xbdef4a65	-0.116841115
119	0xbe7d77d9	-0.2475275
120	0xbd89546e	-0.06705557
121	0xbe29f432	-0.1659706
122	0xbd8fd14a	-0.070223406
123	0xbe40133d	-0.18757339
124	0xbd74e303	-0.059786808
125	0xbe091a4b	-0.13388936
126	0xbc0c0ca8	-0.008547939
127	0xbe65f26a	-0.22455755
